…
      },
      "optimizer": {
        "class": "Adam",
        "param_groups": [
          {
            "lr": 0.0001,
            "betas": [
              0.9,
              0.999
            ],
            "eps": 1e-08,
            "weight_decay": 0,
            "amsgrad": false,
            "maximize": false,
            "foreach": null,
            "capturable": false,
            "differentiable": false,
            "fused": null
          }
        ]
      },
      "networks": {
        "model": {
          "class": "MLP",
          "structure": "MLP(\n  (net): Sequential(\n    (layer0-linear): Linear(in_features=99, out_features=100, bias=True)\n    (layer0-drop_out): Dropout(p=0, inplace=False)\n    (layer0-activation): ReLU()\n    (layer1-linear): Linear(in_features=100, out_features=100, bias=True)\n    (layer1-drop_out): Dropout(p=0, inplace=False)\n    (layer1-activation): ReLU()\n    (layer2-linear): Linear(in_features=100, out_features=100, bias=True)\n    (layer2-drop_out): Dropout(p=0, inplace=False)\n    (layer2-activation): ReLU()\n    (layer3-linear): Linear(in_features=100, out_features=100, bias=True)\n    (layer3-drop_out): Dropout(p=0, inplace=False)\n    (layer3-activation): ReLU()\n    (layer4-linear): Linear(in_features=100, out_features=4, bias=True)\n    (layer4-drop_out): Dropout(p=0, inplace=False)\n  )\n)",
          "n_parameters": 40704,
          "n_trainable": 40704,
          "children": {
            "net": "Sequential"
          }
        },
        "target_model": {
          "class": "MLP",
          "structure": "MLP(\n  (net): Sequential(\n    (layer0-linear): Linear(in_features=99, out_features=100, bias=True)\n    (layer0-drop_out): Dropout(p=0, inplace=False)\n    (layer0-activation): ReLU()\n    (layer1-linear): Linear(in_features=100, out_features=100, bias=True)\n    (layer1-drop_out): Dropout(p=0, inplace=False)\n    (layer1-activation): ReLU()\n    (layer2-linear): Linear(in_features=100, out_features=100, bias=True)\n    (layer2-drop_out): Dropout(p=0, inplace=False)\n    (layer2-activation): ReLU()\n    (layer3-linear): Linear(in_features=100, out_features=100, bias=True)\n    (layer3-drop_out): Dropout(p=0, inplace=False)\n    (layer3-activation): ReLU()\n    (layer4-linear): Linear(in_features=100, out_features=4, bias=True)\n    (layer4-drop_out): Dropout(p=0, inplace=False)\n  )\n)",
          "n_parameters": 40704,
          "n_trainable": 40704,
          "children": {
            "net": "Sequential"
          }
        },
        "criterion": {
          "class": "MSELoss",
          "structure": "MSELoss()",
          "n_parameters": 0,
          "n_trainable": 0
        }
…
            "differentiable": false,
            "fused": null
          },
          {
            "lr": 0.0001,
            "betas": [
              0.9,
              0.999
            ],
            "eps": 1e-08,
            "weight_decay": 0,
            "amsgrad": false,
            "maximize": false,
            "foreach": null,
            "capturable": false,
            "differentiable": false,
            "fused": null
          }
        ]
      },
      "networks": {
        "actor": {
          "class": "Actor",
          "structure": "Actor(\n  (embedder): EmbeddingNet(\n    (embedder): Linear(in_features=9, out_features=16, bias=False)\n  )\n  (encoder): mySequential(\n    (0): MultiHeadEncoder(\n      (MHA_sublayer): MultiHeadAttentionsubLayer(\n        (MHA): MultiHeadAttention()\n        (Norm): Normalization()\n      )\n      (FFandNorm_sublayer): FFandNormsubLayer(\n        (FF): Sequential(\n          (0): Linear(in_features=16, out_features=16, bias=True)\n          (1): ReLU(inplace=True)\n          (2): Linear(in_features=16, out_features=16, bias=True)\n        )\n        (Norm): Normalization()\n      )\n    )\n  )\n  (embedder_for_decoder): EmbeddingNet(\n    (embedder): Linear(in_features=32, out_features=16, bias=False)\n  )\n  (decoder): mySequential(\n    (0): MultiHeadEncoder(\n      (MHA_sublayer): MultiHeadAttentionsubLayer(\n        (MHA): MultiHeadAttention()\n        (Norm): Normalization()\n      )\n      (FFandNorm_sublayer): FFandNormsubLayer(\n        (FF): Sequential(\n          (0): Linear(in_features=16, out_features=16, bias=True)\n          (1): ReLU(inplace=True)\n          (2): Linear(in_features=16, out_features=16, bias=True)\n        )\n        (Norm): Normalization()\n      )\n    )\n  )\n  (mu_net): MLP(\n    (net): Sequential(\n      (layer0-linear): Linear(in_features=16, out_features=32, bias=True)\n      (layer0-drop_out): Dropout(p=0, inplace=False)\n      (layer0-activation): LeakyReLU(negative_slope=0.01)\n      (layer1-linear): Linear(in_features=32, out_features=8, bias=True)\n      (layer1-drop_out): Dropout(p=0, inplace=False)\n      (layer1-activation): LeakyReLU(negative_slope=0.01)\n      (layer2-linear): Linear(in_features=8, out_features=1, bias=True)\n      (layer2-drop_out): Dropout(p=0, inplace=False)\n    )\n  )\n  (sigma_net): MLP(\n    (net): Sequential(\n      (layer0-linear): Linear(in_features=16, out_features=32, bias=True)\n      (layer0-drop_out): Dropout(p=0, inplace=False)\n      (layer0-activation): LeakyReLU(negative_slope=0.01)\n      (layer1-linear): Linear(in_features=32, out_features=8, bias=True)\n      (layer1-drop_out): Dropout(p=0, inplace=False)\n      (layer1-activation): LeakyReLU(negative_slope=0.01)\n      (layer2-linear): Linear(in_features=8, out_features=1, bias=True)\n      (layer2-drop_out): Dropout(p=0, inplace=False)\n    )\n  )\n)",
          "n_parameters": 5426,
          "n_trainable": 5426,
          "children": {
            "embedder": "EmbeddingNet",
            "encoder": "mySequential",
            "embedder_for_decoder": "EmbeddingNet",
            "decoder": "mySequential",
            "mu_net": "MLP",
            "sigma_net": "MLP"
          }
        },
        "critic": {
          "class": "Critic",
          "structure": "Critic(\n  (value_head): MLP(\n    (net): Sequential(\n      (layer0-linear): Linear(in_features=16, out_features=32, bias=True)\n      (layer0-drop_out): Dropout(p=0, inplace=False)\n      (layer0-activation): LeakyReLU(negative_slope=0.01)\n      (layer1-linear): Linear(in_features=32, out_features=16, bias=True)\n      (layer1-drop_out): Dropout(p=0, inplace=False)\n      (layer1-activation): LeakyReLU(negative_slope=0.01)\n      (layer2-linear): Linear(in_features=16, out_features=1, bias=True)\n      (layer2-drop_out): Dropout(p=0, inplace=False)\n    )\n  )\n)",
          "n_parameters": 1089,
          "n_trainable": 1089,
          "children": {
            "value_head": "MLP"
          }
        }
      }
    },
    "GLHF": {
      "agent_class": "metaevobox.baseline.metabbo.glhf.GLHF",
      "config": {
        "train_problem": "bbob-torch-10D",
…
        "class": "Adam",
        "param_groups": [
          {
            "lr": 0.0001,
            "betas": [
              0.9,
              0.999
            ],
            "eps": 1e-08,
            "weight_decay": 0,
            "amsgrad": false,
            "maximize": false,
            "foreach": null,
            "capturable": false,
            "differentiable": false,
            "fused": null
          }
        ]
      },
      "networks": {
        "Pom": {
          "class": "Policy",
          "structure": "Policy(\n  (sm): SMBND()\n  (agen): GBMutModel(\n    (fq1): Sequential(\n      (0): Linear(in_features=100, out_features=1000, bias=True)\n      (1): Tanh()\n    )\n    (fk1): Sequential(\n      (0): Linear(in_features=100, out_features=1000, bias=True)\n      (1): Tanh()\n    )\n    (w): Sequential(\n      (0): Linear(in_features=2, out_features=100, bias=True)\n      (1): Tanh()\n    )\n  )\n  (crgen): GBLearnCrRate(\n    (net): Sequential(\n      (0): Linear(in_features=3, out_features=4, bias=True)\n      (1): ReLU()\n      (2): LayerNorm((4,), eps=1e-05, elementwise_affine=True)\n      (3): Linear(in_features=4, out_features=1, bias=True)\n      (4): Sigmoid()\n    )\n  )\n)",
          "n_parameters": 202329,
          "n_trainable": 202329,
          "children": {
            "sm": "SMBND",
            "agen": "GBMutModel",
            "crgen": "GBLearnCrRate"
          }
        }
      }
    },
    "LDE": {
      "agent_class": "metaevobox.baseline.metabbo.lde.LDE",
      "config": {
        "train_problem": "bbob-10D",
…
            "differentiable": false,
            "fused": null
          },
          {
            "lr": 1e-05,
            "betas": [
              0.9,
              0.999
            ],
            "eps": 1e-08,
            "weight_decay": 0,
            "amsgrad": false,
            "maximize": false,
            "foreach": null,
            "capturable": false,
            "differentiable": false,
            "fused": null
          }
        ]
      },
      "networks": {
        "actor": {
          "class": "Actor",
          "structure": "Actor(\n  (embedders): ModuleList(\n    (0-5): 6 x Sequential(\n      (0): Linear(in_features=10, out_features=64, bias=True)\n      (1): ReLU()\n      (2): Linear(in_features=64, out_features=1, bias=True)\n      (3): ReLU()\n    )\n  )\n  (embedder_final): Sequential(\n    (0): Linear(in_features=15, out_features=64, bias=True)\n    (1): Tanh()\n  )\n  (model): Sequential(\n    (0): Linear(in_features=64, out_features=16, bias=True)\n    (1): Tanh()\n    (2): Linear(in_features=16, out_features=3, bias=True)\n    (3): Softmax(dim=None)\n  )\n)",
          "n_parameters": 6729,
          "n_trainable": 6729,
          "children": {
            "embedders": "ModuleList",
            "embedder_final": "Sequential",
            "model": "Sequential"
          }
        },
        "critic": {
          "class": "Critic",
          "structure": "Critic(\n  (embedders): ModuleList(\n    (0-5): 6 x Sequential(\n      (0): Linear(in_features=10, out_features=64, bias=True)\n      (1): ReLU()\n      (2): Linear(in_features=64, out_features=1, bias=True)\n      (3): ReLU()\n    )\n  )\n  (embedder_final): Sequential(\n    (0): Linear(in_features=15, out_features=64, bias=True)\n    (1): Tanh()\n  )\n  (model): Sequential(\n    (0): Linear(in_features=64, out_features=16, bias=True)\n    (1): Tanh()\n    (2): Linear(in_features=16, out_features=1, bias=True)\n  )\n)",
          "n_parameters": 6695,
          "n_trainable": 6695,
          "children": {
            "embedders": "ModuleList",
            "embedder_final": "Sequential",
            "model": "Sequential"
          }
        }
      }
    },
    "RLDEAFL": {
      "agent_class": "metaevobox.baseline.metabbo.rldeafl.RLDEAFL",
      "config": {
        "train_problem": "bbob-10D",
…
            "fused": null
          },
          {
            "lr": 0.0001,
            "betas": [
              0.9,
              0.999
            ],
            "eps": 1e-08,
            "weight_decay": 0,
            "amsgrad": false,
            "maximize": false,
            "foreach": null,
            "capturable": false,
            "differentiable": false,
            "fused": null
          }
        ]
      },
      "networks": {
        "actor": {
          "class": "Actor",
          "structure": "Actor(\n  (mutation_selector_net): MLP(\n    (net): Sequential(\n      (layer0-linear): Linear(in_features=80, out_features=32, bias=True)\n      (layer0-drop_out): Dropout(p=0, inplace=False)\n      (layer0-activation): ReLU()\n      (layer1-linear): Linear(in_features=32, out_features=14, bias=True)\n      (layer1-drop_out): Dropout(p=0, inplace=False)\n    )\n  )\n  (crossover_selector_net): MLP(\n    (net): Sequential(\n      (layer0-linear): Linear(in_features=80, out_features=32, bias=True)\n      (layer0-drop_out): Dropout(p=0, inplace=False)\n      (layer0-activation): ReLU()\n      (layer1-linear): Linear(in_features=32, out_features=3, bias=True)\n      (layer1-drop_out): Dropout(p=0, inplace=False)\n    )\n  )\n  (mutation_param_sigma_net): MLP(\n    (net): Sequential(\n      (layer0-linear): Linear(in_features=80, out_features=32, bias=True)\n      (layer0-drop_out): Dropout(p=0, inplace=False)\n      (layer0-activation): ReLU()\n      (layer1-linear): Linear(in_features=32, out_features=3, bias=True)\n      (layer1-drop_out): Dropout(p=0, inplace=False)\n    )\n  )\n  (mutation_param_mu_net): MLP(\n    (net): Sequential(\n      (layer0-linear): Linear(in_features=80, out_features=32, bias=True)\n      (layer0-drop_out): Dropout(p=0, inplace=False)\n      (layer0-activation): ReLU()\n      (layer1-linear): Linear(in_features=32, out_features=3, bias=True)\n      (layer1-drop_out): Dropout(p=0, inplace=False)\n    )\n  )\n  (crossover_param_sigma_net): MLP(\n    (net): Sequential(\n      (layer0-linear): Linear(in_features=80, out_features=32, bias=True)\n      (layer0-drop_out): Dropout(p=0, inplace=False)\n      (layer0-activation): ReLU()\n      (layer1-linear): Linear(in_features=32, out_features=2, bias=True)\n      (layer1-drop_out): Dropout(p=0, inplace=False)\n    )\n  )\n  (crossover_param_mu_net): MLP(\n    (net): Sequential(\n      (layer0-linear): Linear(in_features=80, out_features=32, bias=True)\n      (layer0-drop_out): Dropout(p=0, inplace=False)\n      (layer0-activation): ReLU()\n      (layer1-linear): Linear(in_features=32, out_features=2, bias=True)\n      (layer1-drop_out): Dropout(p=0, inplace=False)\n    )\n  )\n)",
          "n_parameters": 16443,
          "n_trainable": 16443,
          "children": {
            "mutation_selector_net": "MLP",
            "crossover_selector_net": "MLP",
            "mutation_param_sigma_net": "MLP",
            "mutation_param_mu_net": "MLP",
            "crossover_param_sigma_net": "MLP",
            "crossover_param_mu_net": "MLP"
          }
        },
        "critic": {
          "class": "Critic",
          "structure": "Critic(\n  (_Critic__value_head): MLP(\n    (net): Sequential(\n      (layer0-linear): Linear(in_features=80, out_features=16, bias=True)\n      (layer0-drop_out): Dropout(p=0, inplace=False)\n      (layer0-activation): ReLU()\n      (layer1-linear): Linear(in_features=16, out_features=8, bias=True)\n      (layer1-drop_out): Dropout(p=0, inplace=False)\n      (layer1-activation): ReLU()\n      (layer2-linear): Linear(in_features=8, out_features=1, bias=True)\n      (layer2-drop_out): Dropout(p=0, inplace=False)\n    )\n  )\n)",
          "n_parameters": 1441,
          "n_trainable": 1441,
          "children": {
            "_Critic__value_head": "MLP"
          }
        },
        "fe": {
          "class": "Feature_Extractor",
          "structure": "Feature_Extractor(\n  (embedder): EmbeddingNet(\n    (embedder): Linear(in_features=3, out_features=64, bias=False)\n  )\n  (fes_embedder): EmbeddingNet(\n    (embedder): Linear(in_features=1, out_features=16, bias=False)\n  )\n  (dimension_encoder): mySequential(\n    (0): MultiHeadEncoder(\n      (MHA_sublayer): MultiHeadAttentionsubLayer(\n        (MHA): MultiHeadAttention()\n        (Norm): Normalization()\n      )\n      (FFandNorm_sublayer): FFandNormsubLayer(\n        (FF): Sequential(\n          (0): Linear(in_features=64, out_features=16, bias=True)\n          (1): ReLU(inplace=True)\n          (2): Linear(in_features=16, out_features=64, bias=True)\n        )\n        (Norm): Normalization()\n      )\n    )\n  )\n  (individual_encoder): mySequential(\n    (0): MultiHeadEncoder(\n      (MHA_sublayer): MultiHeadAttentionsubLayer(\n        (MHA): MultiHeadAttention()\n        (Norm): Normalization()\n      )\n      (FFandNorm_sublayer): FFandNormsubLayer(\n        (FF): Sequential(\n          (0): Linear(in_features=64, out_features=16, bias=True)\n          (1): ReLU(inplace=True)\n          (2): Linear(in_features=16, out_features=64, bias=True)\n        )\n        (Norm): Normalization()\n      )\n    )\n  )\n)",
          "n_parameters": 37232,
          "n_trainable": 37232,
          "children": {
            "embedder": "EmbeddingNet",
            "fes_embedder": "EmbeddingNet",
            "dimension_encoder": "mySequential",
            "individual_encoder": "mySequential"
          }
        }
…
            "differentiable": false,
            "fused": null
          },
          {
            "lr": 1e-05,
            "betas": [
              0.9,
              0.999
            ],
            "eps": 1e-08,
            "weight_decay": 0,
            "amsgrad": false,
            "maximize": false,
            "foreach": null,
            "capturable": false,
            "differentiable": false,
            "fused": null
          }
        ]
      },
      "networks": {
        "actor": {
          "class": "Actor",
          "structure": "Actor(\n  (_Actor__mu_net): MLP(\n    (net): Sequential(\n      (layer0-linear): Linear(in_features=1, out_features=64, bias=True)\n      (layer0-drop_out): Dropout(p=0, inplace=False)\n      (layer0-activation): ReLU()\n      (layer1-linear): Linear(in_features=64, out_features=32, bias=True)\n      (layer1-drop_out): Dropout(p=0, inplace=False)\n      (layer1-activation): ReLU()\n      (layer2-linear): Linear(in_features=32, out_features=35, bias=True)\n      (layer2-drop_out): Dropout(p=0, inplace=False)\n    )\n  )\n  (_Actor__sigma_net): MLP(\n    (net): Sequential(\n      (layer0-linear): Linear(in_features=1, out_features=64, bias=True)\n      (layer0-drop_out): Dropout(p=0, inplace=False)\n      (layer0-activation): ReLU()\n      (layer1-linear): Linear(in_features=64, out_features=32, bias=True)\n      (layer1-drop_out): Dropout(p=0, inplace=False)\n      (layer1-activation): ReLU()\n      (layer2-linear): Linear(in_features=32, out_features=35, bias=True)\n      (layer2-drop_out): Dropout(p=0, inplace=False)\n    )\n  )\n)",
          "n_parameters": 6726,
          "n_trainable": 6726,
          "children": {
            "_Actor__mu_net": "MLP",
            "_Actor__sigma_net": "MLP"
          }
        },
        "critic": {
          "class": "Critic",
          "structure": "Critic(\n  (_Critic__value_head): MLP(\n    (net): Sequential(\n      (layer0-linear): Linear(in_features=1, out_features=16, bias=True)\n      (layer0-drop_out): Dropout(p=0, inplace=False)\n      (layer0-activation): ReLU()\n      (layer1-linear): Linear(in_features=16, out_features=8, bias=True)\n      (layer1-drop_out): Dropout(p=0, inplace=False)\n      (layer1-activation): ReLU()\n      (layer2-linear): Linear(in_features=8, out_features=1, bias=True)\n      (layer2-drop_out): Dropout(p=0, inplace=False)\n    )\n  )\n)",
          "n_parameters": 177,
          "n_trainable": 177,
          "children": {
            "_Critic__value_head": "MLP"
          }
        }
      }
    },
    "RLHPSDE": {
      "agent_class": "metaevobox.baseline.metabbo.rlhpsde.RLHPSDE",
      "config": {
        "train_problem": "bbob-10D",
…
        "param_groups": [
          {
            "lr": 1e-05,
            "betas": [
              0.9,
              0.999
            ],
            "eps": 1e-08,
            "weight_decay": 0,
            "amsgrad": false,
            "maximize": false,
            "foreach": null,
            "capturable": false,
            "differentiable": false,
            "fused": null
          }
        ]
      },
      "networks": {
        "model": {
          "class": "PolicyNetwork",
          "structure": "PolicyNetwork(\n  (_PolicyNetwork__mu_net): MLP(\n    (net): Sequential(\n      (layer0-linear): Linear(in_features=20, out_features=32, bias=True)\n      (layer0-drop_out): Dropout(p=0, inplace=False)\n      (layer0-activation): ReLU()\n      (layer1-linear): Linear(in_features=32, out_features=8, bias=True)\n      (layer1-drop_out): Dropout(p=0, inplace=False)\n      (layer1-activation): ReLU()\n      (layer2-linear): Linear(in_features=8, out_features=1, bias=True)\n      (layer2-drop_out): Dropout(p=0, inplace=False)\n    )\n  )\n  (_PolicyNetwork__sigma_net): MLP(\n    (net): Sequential(\n      (layer0-linear): Linear(in_features=20, out_features=32, bias=True)\n      (layer0-drop_out): Dropout(p=0, inplace=False)\n      (layer0-activation): ReLU()\n      (layer1-linear): Linear(in_features=32, out_features=8, bias=True)\n      (layer1-drop_out): Dropout(p=0, inplace=False)\n      (layer1-activation): ReLU()\n      (layer2-linear): Linear(in_features=8, out_features=1, bias=True)\n      (layer2-drop_out): Dropout(p=0, inplace=False)\n    )\n  )\n)",
          "n_parameters": 1890,
          "n_trainable": 1890,
          "children": {
            "_PolicyNetwork__mu_net": "MLP",
            "_PolicyNetwork__sigma_net": "MLP"
          }
        }
      }
    },
    "RNNOPT": {
      "agent_class": "metaevobox.baseline.metabbo.rnnopt.RNNOPT",
…
